…
INFO:data_loader_1d:Filtered to 122880 samples, 6 classes: ['16QAM', '64QAM', '8PSK', 'BPSK', 'OQPSK', 'QPSK']
INFO:data_loader_1d:Split sizes: train=86016, val=18432, test=18432
INFO:train_1d_cnn:Classes: ['16QAM', '64QAM', '8PSK', 'BPSK', 'OQPSK', 'QPSK']
INFO:train_1d_cnn:Model has 11766 parameters (budget: 50,000)
Model: "nano_amc_cnn"
_________________________________________________________________
 Layer (type)                Output Shape              Param #   
=================================================================
 input_1 (InputLayer)        [(None, 1024, 2)]         0         
                                                                 
 conv1d (Conv1D)             (None, 1024, 16)          240       
                                                                 
 batch_normalization (BatchN  (None, 1024, 16)         64        
 ormalization)                                                   
                                                                 
 max_pooling1d (MaxPooling1D  (None, 256, 16)          0         
 )                                                               
                                                                 
 conv1d_1 (Conv1D)           (None, 256, 32)           2592      
                                                                 
 batch_normalization_1 (Batc  (None, 256, 32)          128       
 hNormalization)                                                 
                                                                 
 max_pooling1d_1 (MaxPooling  (None, 64, 32)           0         
 1D)                                                             
                                                                 
 conv1d_2 (Conv1D)           (None, 64, 64)            6208      
                                                                 
 batch_normalization_2 (Batc  (None, 64, 64)           256       
 hNormalization)                                                 
                                                                 
 global_average_pooling1d (G  (None, 64)               0         
 lobalAveragePooling1D)                                          
                                                                 
 dense (Dense)               (None, 32)                2080      
                                                                 
 dense_1 (Dense)             (None, 6)                 198       
                                                                 
=================================================================
Total params: 11,766
Trainable params: 11,542
Non-trainable params: 224
_________________________________________________________________
INFO:train_1d_cnn:Starting training: epochs=30, lr=0.001000, patience=5
Epoch 1/30
  1/672 [....................
…
